(C:\Users\User\Anaconda3\envs\py35) C:\Users\User>python C:\Users\User\Documents\CENGs\Thesis\edanur\BadaNet\EENets\main.py --epochs 20 --filters 4
----------------------------------------------------------------
        Layer (type)               Output Shape         Param #
================================================================
            Conv2d-1            [-1, 4, 28, 28]              40
       BatchNorm2d-2            [-1, 4, 28, 28]               8
              ReLU-3            [-1, 4, 28, 28]               0
            Conv2d-4            [-1, 4, 28, 28]             148
       BatchNorm2d-5            [-1, 4, 28, 28]               8
              ReLU-6            [-1, 4, 28, 28]               0
            Conv2d-7            [-1, 4, 28, 28]             148
 AdaptiveAvgPool2d-8              [-1, 4, 1, 1]               0
            Linear-9                   [-1, 10]              50
          Softmax-10                   [-1, 10]               0
           Linear-11                    [-1, 1]               5
          Sigmoid-12                    [-1, 1]               0
      BatchNorm2d-13            [-1, 4, 28, 28]               8
             ReLU-14            [-1, 4, 28, 28]               0
           Conv2d-15            [-1, 8, 14, 14]             296
      BatchNorm2d-16            [-1, 8, 14, 14]              16
             ReLU-17            [-1, 8, 14, 14]               0
           Conv2d-18            [-1, 8, 14, 14]             584
           Conv2d-19            [-1, 8, 14, 14]              40
AdaptiveAvgPool2d-20              [-1, 8, 1, 1]               0
           Linear-21                   [-1, 10]              90
          Softmax-22                   [-1, 10]               0
           Linear-23                    [-1, 1]               9
          Sigmoid-24                    [-1, 1]               0
      BatchNorm2d-25            [-1, 8, 14, 14]              16
             ReLU-26            [-1, 8, 14, 14]               0
           Conv2d-27             [-1, 16, 7, 7]           1,168
      BatchNorm2d-28             [-1, 16, 7, 7]              32
             ReLU-29             [-1, 16, 7, 7]               0
           Conv2d-30             [-1, 16, 7, 7]           2,320
           Conv2d-31             [-1, 16, 7, 7]             144
      BatchNorm2d-32             [-1, 16, 7, 7]              32
             ReLU-33             [-1, 16, 7, 7]               0
AdaptiveAvgPool2d-34             [-1, 16, 1, 1]               0
           Linear-35                   [-1, 10]             170
          Softmax-36                   [-1, 10]               0
================================================================
Total params: 5,332
Trainable params: 5,332
Non-trainable params: 0
----------------------------------------------------------------
Input size (MB): 0.00
Forward/backward pass size (MB): 0.34
Params size (MB): 0.02
Estimated Total Size (MB): 0.36
----------------------------------------------------------------
 1:Test set avg time: 0.5041msec Avg loss: 1.3203, Avg cost: 0.2600, Exits: <0,10000,0>, Accuracy:62.20%
…
