…
1_acc: 0.8090 - val_out0_acc: 0.1829 - val_out1_acc: 0.2020 - val_out2_acc: 0.9781
accuracy:  0.961
cost:      0.87871965053

T: 0.50 --> acc: 0.961000 cost: 0.878720
out0        546 0.08%
out1       1844 0.26%
out2       6982 1.00%

Exit Distribution: <408, 1137, 8455>
__________________________________________________________________________________________________
Layer (type)                    Output Shape         Param #     Connected to                     
==================================================================================================
input_1 (InputLayer)            (None, 28, 28, 1)    0                                            
__________________________________________________________________________________________________
conv2d_1 (Conv2D)               (None, 28, 28, 2)    20          input_1[0][0]                    
__________________________________________________________________________________________________
batch_normalization_1 (BatchNor (None, 28, 28, 2)    8           conv2d_1[0][0]                   
__________________________________________________________________________________________________
activation_1 (Activation)       (None, 28, 28, 2)    0           batch_normalization_1[0][0]      
__________________________________________________________________________________________________
conv2d_2 (Conv2D)               (None, 28, 28, 2)    38          activation_1[0][0]               
__________________________________________________________________________________________________
batch_normalization_2 (BatchNor (None, 28, 28, 2)    8           conv2d_2[0][0]                   
__________________________________________________________________________________________________
activation_2 (Activation)       (None, 28, 28, 2)    0           batch_normalization_2[0][0]      
__________________________________________________________________________________________________
conv2d_3 (Conv2D)               (None, 28, 28, 2)    38          activation_2[0][0]               
__________________________________________________________________________________________________
add_1 (Add)                     (None, 28, 28, 2)    0           activation_1[0][0]               
                                                                 conv2d_3[0][0]                   
__________________________________________________________________________________________________
batch_normalization_3 (BatchNor (None, 28, 28, 2)    8           add_1[0][0]                      
__________________________________________________________________________________________________
activation_3 (Activation)       (None, 28, 28, 2)    0           batch_normalization_3[0][0]      
__________________________________________________________________________________________________
conv2d_4 (Conv2D)               (None, 14, 14, 4)    76          activation_3[0][0]               
__________________________________________________________________________________________________
batch_normalization_4 (BatchNor (None, 14, 14, 4)    16          conv2d_4[0][0]                   
__________________________________________________________________________________________________
activation_4 (Activation)       (None, 14, 14, 4)    0           batch_normalization_4[0][0]      
__________________________________________________________________________________________________
conv2d_6 (Conv2D)               (None, 14, 14, 4)    12          add_1[0][0]                      
__________________________________________________________________________________________________
conv2d_5 (Conv2D)               (None, 14, 14, 4)    148         activation_4[0][0]               
__________________________________________________________________________________________________
add_2 (Add)                     (None, 14, 14, 4)    0           conv2d_6[0][0]                   
                                                                 conv2d_5[0][0]                   
__________________________________________________________________________________________________
batch_normalization_5 (BatchNor (None, 14, 14, 4)    16          add_2[0][0]                      
__________________________________________________________________________________________________
activation_5 (Activation)       (None, 14, 14, 4)    0           batch_normalization_5[0][0]      
__________________________________________________________________________________________________
conv2d_7 (Conv2D)               (None, 7, 7, 8)      296         activation_5[0][0]               
__________________________________________________________________________________________________
batch_normalization_6 (BatchNor (None, 7, 7, 8)      32          conv2d_7[0][0]                   
__________________________________________________________________________________________________
activation_6 (Activation)       (None, 7, 7, 8)      0           batch_normalization_6[0][0]      
__________________________________________________________________________________________________
conv2d_9 (Conv2D)               (None, 7, 7, 8)      40          add_2[0][0]                      
__________________________________________________________________________________________________
conv2d_8 (Conv2D)               (None, 7, 7, 8)      584         activation_6[0][0]               
__________________________________________________________________________________________________
add_3 (Add)                     (None, 7, 7, 8)      0           conv2d_9[0][0]                   
                                                                 conv2d_8[0][0]                   
__________________________________________________________________________________________________
batch_normalization_7 (BatchNor (None, 7, 7, 8)      32          add_3[0][0]                      
__________________________________________________________________________________________________
activation_7 (Activation)       (None, 7, 7, 8)      0           batch_normalization_7[0][0]      
__________________________________________________________________________________________________
average_pooling2d_2 (AveragePoo (None, 1, 1, 2)      0           add_1[0][0]                      
__________________________________________________________________________________________________
average_pooling2d_3 (AveragePoo (None, 1, 1, 4)      0           add_2[0][0]                      
__________________________________________________________________________________________________
average_pooling2d_1 (AveragePoo (None, 1, 1, 8)      0           activation_7[0][0]               
__________________________________________________________________________________________________
flatten_2 (Flatten)             (None, 2)            0           average_pooling2d_2[0][0]        
__________________________________________________________________________________________________
flatten_3 (Flatten)             (None, 4)            0           average_pooling2d_3[0][0]        
__________________________________________________________________________________________________
flatten_1 (Flatten)             (None, 8)            0           average_pooling2d_1[0][0]        
__________________________________________________________________________________________________
conf0 (Dense)                   (None, 1)            3           flatten_2[0][0]                  
__________________________________________________________________________________________________
conf1 (Dense)                   (None, 1)            5           flatten_3[0][0]                  
__________________________________________________________________________________________________
out0 (Dense)                    (None, 10)           30          flatten_2[0][0]                  
__________________________________________________________________________________________________
out1 (Dense)                    (None, 10)           50          flatten_3[0][0]                  
__________________________________________________________________________________________________
out2 (Dense)                    (None, 10)           90          flatten_1[0][0]                  
==================================================================================================
Total params: 1,550
Trainable params: 1,490
Non-trainable params: 60
__________________________________________________________________________________________________
