…
onf1_acc: 0.1001 - val_out0_acc: 0.1165 - val_out1_acc: 0.9134 - val_out2_acc: 0.9843
accuracy:  0.9134
cost:      0.256059525839

T: 0.50 --> acc: 0.913400 cost: 0.256060
out0       1792 0.07%
out1       6608 0.26%
out2      25814 1.00%

Exit Distribution: <0, 9999, 1>
__________________________________________________________________________________________________
Layer (type)                    Output Shape         Param #     Connected to                     
==================================================================================================
input_1 (InputLayer)            (None, 28, 28, 1)    0                                            
__________________________________________________________________________________________________
conv2d_1 (Conv2D)               (None, 28, 28, 4)    40          input_1[0][0]                    
__________________________________________________________________________________________________
batch_normalization_1 (BatchNor (None, 28, 28, 4)    16          conv2d_1[0][0]                   
__________________________________________________________________________________________________
activation_1 (Activation)       (None, 28, 28, 4)    0           batch_normalization_1[0][0]      
__________________________________________________________________________________________________
conv2d_2 (Conv2D)               (None, 28, 28, 4)    148         activation_1[0][0]               
__________________________________________________________________________________________________
batch_normalization_2 (BatchNor (None, 28, 28, 4)    16          conv2d_2[0][0]                   
__________________________________________________________________________________________________
activation_2 (Activation)       (None, 28, 28, 4)    0           batch_normalization_2[0][0]      
__________________________________________________________________________________________________
conv2d_3 (Conv2D)               (None, 28, 28, 4)    148         activation_2[0][0]               
__________________________________________________________________________________________________
add_1 (Add)                     (None, 28, 28, 4)    0           activation_1[0][0]               
                                                                 conv2d_3[0][0]                   
__________________________________________________________________________________________________
batch_normalization_3 (BatchNor (None, 28, 28, 4)    16          add_1[0][0]                      
__________________________________________________________________________________________________
activation_3 (Activation)       (None, 28, 28, 4)    0           batch_normalization_3[0][0]      
__________________________________________________________________________________________________
conv2d_4 (Conv2D)               (None, 14, 14, 8)    296         activation_3[0][0]               
__________________________________________________________________________________________________
batch_normalization_4 (BatchNor (None, 14, 14, 8)    32          conv2d_4[0][0]                   
__________________________________________________________________________________________________
activation_4 (Activation)       (None, 14, 14, 8)    0           batch_normalization_4[0][0]      
__________________________________________________________________________________________________
conv2d_6 (Conv2D)               (None, 14, 14, 8)    40          add_1[0][0]                      
__________________________________________________________________________________________________
conv2d_5 (Conv2D)               (None, 14, 14, 8)    584         activation_4[0][0]               
__________________________________________________________________________________________________
add_2 (Add)                     (None, 14, 14, 8)    0           conv2d_6[0][0]                   
                                                                 conv2d_5[0][0]                   
__________________________________________________________________________________________________
batch_normalization_5 (BatchNor (None, 14, 14, 8)    32          add_2[0][0]                      
__________________________________________________________________________________________________
activation_5 (Activation)       (None, 14, 14, 8)    0           batch_normalization_5[0][0]      
__________________________________________________________________________________________________
conv2d_7 (Conv2D)               (None, 7, 7, 16)     1168        activation_5[0][0]               
__________________________________________________________________________________________________
batch_normalization_6 (BatchNor (None, 7, 7, 16)     64          conv2d_7[0][0]                   
__________________________________________________________________________________________________
activation_6 (Activation)       (None, 7, 7, 16)     0           batch_normalization_6[0][0]      
__________________________________________________________________________________________________
conv2d_9 (Conv2D)               (None, 7, 7, 16)     144         add_2[0][0]                      
__________________________________________________________________________________________________
conv2d_8 (Conv2D)               (None, 7, 7, 16)     2320        activation_6[0][0]               
__________________________________________________________________________________________________
add_3 (Add)                     (None, 7, 7, 16)     0           conv2d_9[0][0]                   
                                                                 conv2d_8[0][0]                   
__________________________________________________________________________________________________
batch_normalization_7 (BatchNor (None, 7, 7, 16)     64          add_3[0][0]                      
__________________________________________________________________________________________________
activation_7 (Activation)       (None, 7, 7, 16)     0           batch_normalization_7[0][0]      
__________________________________________________________________________________________________
average_pooling2d_2 (AveragePoo (None, 1, 1, 4)      0           add_1[0][0]                      
__________________________________________________________________________________________________
average_pooling2d_3 (AveragePoo (None, 1, 1, 8)      0           add_2[0][0]                      
__________________________________________________________________________________________________
average_pooling2d_1 (AveragePoo (None, 1, 1, 16)     0           activation_7[0][0]               
__________________________________________________________________________________________________
flatten_2 (Flatten)             (None, 4)            0           average_pooling2d_2[0][0]        
__________________________________________________________________________________________________
flatten_3 (Flatten)             (None, 8)            0           average_pooling2d_3[0][0]        
__________________________________________________________________________________________________
flatten_1 (Flatten)             (None, 16)           0           average_pooling2d_1[0][0]        
__________________________________________________________________________________________________
conf0 (Dense)                   (None, 1)            5           flatten_2[0][0]                  
__________________________________________________________________________________________________
conf1 (Dense)                   (None, 1)            9           flatten_3[0][0]                  
__________________________________________________________________________________________________
out0 (Dense)                    (None, 10)           50          flatten_2[0][0]                  
__________________________________________________________________________________________________
out1 (Dense)                    (None, 10)           90          flatten_3[0][0]                  
__________________________________________________________________________________________________
out2 (Dense)                    (None, 10)           170         flatten_1[0][0]                  
==================================================================================================
Total params: 5,452
Trainable params: 5,332
Non-trainable params: 120
__________________________________________________________________________________________________
