(C:\Users\User\Anaconda3\envs\py35) C:\Users\User>python C:\Users\User\Documents\CENGs\Thesis\edanur\BadaNet\EENets\main.py --epochs 30 --filters 2
----------------------------------------------------------------
        Layer (type)               Output Shape         Param #
================================================================
            Conv2d-1            [-1, 2, 28, 28]              20
       BatchNorm2d-2            [-1, 2, 28, 28]               4
              ReLU-3            [-1, 2, 28, 28]               0
            Conv2d-4            [-1, 2, 28, 28]              38
       BatchNorm2d-5            [-1, 2, 28, 28]               4
              ReLU-6            [-1, 2, 28, 28]               0
            Conv2d-7            [-1, 2, 28, 28]              38
 AdaptiveAvgPool2d-8              [-1, 2, 1, 1]               0
            Linear-9                   [-1, 10]              30
          Softmax-10                   [-1, 10]               0
           Linear-11                    [-1, 1]               3
          Sigmoid-12                    [-1, 1]               0
      BatchNorm2d-13            [-1, 2, 28, 28]               4
             ReLU-14            [-1, 2, 28, 28]               0
           Conv2d-15            [-1, 4, 14, 14]              76
      BatchNorm2d-16            [-1, 4, 14, 14]               8
             ReLU-17            [-1, 4, 14, 14]               0
           Conv2d-18            [-1, 4, 14, 14]             148
           Conv2d-19            [-1, 4, 14, 14]              12
AdaptiveAvgPool2d-20              [-1, 4, 1, 1]               0
           Linear-21                   [-1, 10]              50
          Softmax-22                   [-1, 10]               0
           Linear-23                    [-1, 1]               5
          Sigmoid-24                    [-1, 1]               0
      BatchNorm2d-25            [-1, 4, 14, 14]               8
             ReLU-26            [-1, 4, 14, 14]               0
           Conv2d-27              [-1, 8, 7, 7]             296
      BatchNorm2d-28              [-1, 8, 7, 7]              16
             ReLU-29              [-1, 8, 7, 7]               0
           Conv2d-30              [-1, 8, 7, 7]             584
           Conv2d-31              [-1, 8, 7, 7]              40
      BatchNorm2d-32              [-1, 8, 7, 7]              16
             ReLU-33              [-1, 8, 7, 7]               0
AdaptiveAvgPool2d-34              [-1, 8, 1, 1]               0
           Linear-35                   [-1, 10]              90
          Softmax-36                   [-1, 10]               0
================================================================
Total params: 1,490
Trainable params: 1,490
Non-trainable params: 0
----------------------------------------------------------------
Input size (MB): 0.00
Forward/backward pass size (MB): 0.17
Params size (MB): 0.01
Estimated Total Size (MB): 0.18
----------------------------------------------------------------
 1:Test set avg time: 0.7327msec Avg loss: 1.8396, Avg cost: 0.9848, Exits: <0,206,9794>, Accuracy:70.58%
…
